Maqacues.onnx (onnx, 87554 bytes, 6 tensors)

conv1.weight f4 [64, 3, 3, 3]
0.103523 -0.011238321 0.16273625 -0.15779243 0.05554662 0.12499714 0.10946821 0.0529825
-0.13223255 0.05786124 -0.15674295 0.047589894 0.05320558 0.10986638 0.029757394 0.007103388
-0.14839843 0.008512468 -0.04179085 0.060726386 -0.19875795 0.16513322 0.15808004 0.0010954771
-0.15875834 -5.0418083e-05 -0.04680646 -0.0636706 -0.103802316 -0.11077311 -0.0027679144 -0.11109984
0.005584931 -0.20720302 -0.0042604045 -0.0384346 -0.045629866 0.09891189 -0.1420018 0.12724438
0.11263746 0.1001093 -0.09001181 -0.14644283 -0.09733156 0.21147369 0.08456297 0.22211967
-0.15626286 0.1525196 0.0009234968 0.18562761 -0.10116048 0.1915034 -0.22362356 -0.18473627
0.03349848 -0.21187198 0.064454235 -0.14677173 -0.18593596 0.018013243 -0.046047404 -0.14382426
0.110964336 0.15896766 -0.08976773 0.017119413 0.20193061 0.059106305 -0.063363895 0.15926732
-0.02535922 -0.015878448 0.025917366 0.19824745 0.20467088 0.11102345 -0.0015798007 0.21129385
0.18711205 0.12603477 -0.11442203 0.12067106 0.0004604634 0.0122406455 -0.00021584092 0.06787364
0.15360834 0.1881366 -0.10349367 -0.25922954 -0.15951307 -0.24014367 -0.3140659 -0.1262469
-0.30892003 -0.1876635 -0.039011072 0.17678764 0.17581178 -0.09632785 0.10974449 0.19279404
-0.03353032 -0.09949534 -0.06214858 0.10778946 -0.0042620087 0.0025454138 0.023883894 -0.15488218
0.1118839 -0.042509004 0.047072653 -0.06466574 -0.14452231 0.038370367 -0.14801039 -0.16658926
-0.027290542 -0.18920463 0.14677699 0.07986506 0.14805649 0.013656574 -0.037293047 -0.08404153
-0.13704199 -0.10262739 0.0040234793 0.10513924 -0.09613024 0.090378344 0.09266565 0.123452984
0.00040067895 -0.04291951 -0.1002433 -0.009938507 -0.104101546 -0.16083977 0.10556794 -0.04008163
0.0095819505 -0.014497043 0.015363888 -0.011140516 -0.19141196 0.071143806 -0.12297277 -0.0504239
-0.17954472 -0.026226243 0.18421184 0.13419272 0.13945457 -0.018136837 -0.007313814 0.08020411
-0.07453007 0.20919487 -0.07978122 -0.17107762 -0.16860662 0.036660474 -0.10209364 0.08354745
-0.255685 -0.18483178 -0.052469473 0.20906878 0.20378451 0.0027420083 -0.085782915 0.13201365
0.1027811 0.07796987 0.23051828 0.18509354 0.172412 0.12499473 -0.009151253 -0.052095167
0.15188143 0.064601354 -0.019733902 -0.02103068 0.19214982 0.14455478 0.04718335 -0.15426567
-0.07870207 -0.13773523 -0.0043663653 0.03135952 -0.06270832 -0.18255685 0.10182721 -0.11646508
-0.13174318 0.2313365 -0.07698521 0.09859055 0.13774522 0.21685766 0.006161568 0.16113257
-0.048417896 0.09471518 0.24274954 -0.06776612 0.21240604 0.08633651 0.22459173 -0.07252809
-0.10176265 -0.13047096 -0.06339712 -0.059448905 -0.18967824 0.038553063 -0.04482302 -0.05970702
0.15742372 0.10872828 0.13683404 -0.038918 -0.0946349 -0.06623373 0.20180018 -0.09842228
0.16982338 -0.14398041 -0.18498066 -0.18739688 0.14338805 -0.05170181 0.16601059 0.101852946
-0.027797282 0.095029786 -0.10297071 -0.04591891 -0.14414538 -0.21140273 -0.0558462 -0.19323613
0.123333074 -0.09340061 0.106362626 -0.0012591168 -0.059342068 -0.1223125 0.1996113 0.0765456
00000000: de03 d43d ef20 38bc 55a4 263e 5794 21be
00000010: da84 633d 80fe ff3d de30 e03d 2e04 593d
00000020: f867 07be e8ff 6c3d 3981 20be 9fed 423d
00000030: 18ee 593d a001 e13d c7c5 f33c 8ac3 e83b
00000040: c2f5 17be e177 0b3c e22c 2bbd 3bbc 783d
00000050: 3487 4bbe af18 293e bcdf 213e 1d96 8f3a
00000060: 8c91 22be 0178 53b8 21b8 3fbd bb65 82bd
00000070: 4f96 d4bd 03dd e2bd e665 35bb 5088 e3bd
00000080: cc01 b73b 072d 54be dd9a 8bbb 996d 1dbd
00000090: 62e6 3abd 5192 ca3d eb68 11be 5a4c 023e
000000a0: 78ae e63d 1b06 cd3d 1d58 b8bd 1cf5 15be
000000b0: c555 c7bd 8f8c 583e 5a2f ad3d 5773 633e
000000c0: 5f03 20be 192e 1c3e d216 723a 2a15 3e3e
000000d0: 3a2d cfbd 7819 443e 93fd 64be 812b 3dbe
000000e0: b435 093d f8f4 58be 9500 843d 544b 16be
000000f0: ff65 3ebe 8290 933c 349c 3cbd ab46 13be
00000100: 4541 e33d 6bc8 223e 25d8 b7bd 033e 8c3c
00000110: e6c6 4e3e 7419 723d eec4 81bd f916 233e
00000120: 24be cfbc 8513 82bc a850 d43c 6101 4b3e
00000130: 3e95 513e 4360 e33d 5111 cfba 6a5d 583e
00000140: 4d9a 3f3e 420f 013e 1956 eabd 6422 f73d
00000150: 5a6a f139 fd8c 483c 5b53 62b9 5601 8b3d
00000160: 814b 1d3e e2a6 403e 7df4 d3bd bcb9 84be
00000170: 6557 23be 39e8 75be 3fcd a0be de46 01be
00000180: c42a 9ebe dc2a 40be 13ca 1fbd d207 353e
00000190: 0108 343e 8947 c5bd b8c1 e03d cd6b 453e
000001a0: 1757 09bd 36c4 cbbd 828f 7ebd b8c0 dc3d
000001b0: 52a8 8bbb f5d0 263b 28a8 c33c 6f99 1ebe
000001c0: 6323 e53d ec1d 2ebd 41cf 403d 796f 84bd
000001d0: a8fd 13be 3f2a 1d3d 0990 17be 6096 2abe
000001e0: 6a90 dfbc dcbe 41be b54c 163e 4b90 a33d
000001f0: 1f9c 173e d3bf 5f3c 98c0 18bd f71d acbd
00000200: bc54 0cbe 4f2e d2bd 64d7 833b 3e53 d73d
00000210: eedf c4bd 4818 b93d 7dc7 bd3d ebd4 fc3d
00000220: 3812 d239 5ecc 2fbd 5c4c cdbd 1fd5 22bc
00000230: 3133 d5bd 2eb3 24be 0134 d83d a32c 24bd
00000240: 9dfd 1c3c 0185 6dbc d1b8 7b3c b686 36bc
00000250: 7f01 44be d8b3 913d 26d9 fbbd 4b89 4ebd
00000260: 92da 37be 6bd8 d6bc 07a2 3c3e d169 093e
00000270: 2ecd 0e3e b493 94bc b8a8 efbb 0d42 a43d
00000280: 39a3 98bd 2e37 563e 5664 a3bd f92e 2fbe
00000290: 37a7 2cbe 4b29 163d 7816 d1bd ed1a ab3d
000002a0: 25e9 82be 8b44 3dbe 3bea 56bd 2016 563e
000002b0: e3ac 503e 44b3 333b f4ae afbd 962e 073e
000002c0: e67e d23d abae 9f3d fc0c 6c3e 2989 3d3e
000002d0: c58c 303e 3dfd ff3d 23ef 15bc be61 55bd
000002e0: ce86 1b3e b74d 843d fea8 a1bc 8848 acbc
000002f0: ecc2 443e 2b06 143e 5443 413d d2f7 1dbe
00000300: 8d2e a1bd 770a 0dbe ba13 8fbb d772 003d
00000310: 386d 80bd 2ff0 3abe c98a d03d 3e85 eebd
00000320: afe7 06be 7ae3 6c3e 6caa 9dbd d8e9 c93d
00000330: 150d 0d3e ef0f 5e3e fbe6 c93b f0ff 243e
00000340: d851 46bd 08fa c13d 5693 783e f7c8 8abd
00000350: f880 593e 32d1 b03d 60fb 653e 9b89 94bd
00000360: f068 d0bd 2e9a 05be 59d6 81bd b280 73bd
00000370: 033b 42be d1e9 1d3d 5898 37bd 598f 74bd
00000380: af33 213e efac de3d 391e 0c3e 7b68 1fbd
00000390: f1cf c1bd 8da5 87bd b5a4 4e3e 9f91 c9bd
000003a0: 2ee6 2d3e 9a6f 13be 926b 3dbe f8e4 3fbe
000003b0: 51d4 123e 47c5 53bd aefe 293e 4798 d03d
000003c0: 20b7 e3bc fa9e c23d 4fe2 d2bd 7815 3cbd
000003d0: d99a 13be f579 58be fcbe 64bd b1df 45be
000003e0: 0d96 fc3d d248 bfbd a6d4 d93d f308 a5ba
000003f0: ab10 73bd fa7e fabd e866 4c3e f1c3 9c3d

conv1.bias f4 [64]
-0.05038515 0.1231603 0.08212163 0.36941075 -0.02726437 0.1536957 0.077267066 -0.23984015
0.19812948 0.15257193 0.054862667 -0.08367398 0.43878803 0.024507442 -0.11404165 -0.12827691
0.19169502 -0.13427098 -0.04467895 0.37660074 -0.12913936 0.18701844 0.064182274 -0.16091514
-0.0616554 0.00096197275 0.2841248 -0.17700382 -0.29739386 -0.23675826 -0.24324434 -0.07152883
-0.18786767 -0.04329753 -0.053389784 -0.06320696 -0.15159212 0.3166352 0.035118386 0.016181897
-0.17387235 -0.02497033 -0.18912345 -0.145209 -0.07220629 0.50006384 -0.16698284 -0.096244395
-0.18989214 0.16092251 -0.04068263 -0.14949821 -0.029501138 0.002954025 0.35120645 -0.046191305
-0.011386792 -0.13034052 0.1280726 0.089653604 0.037729565 0.0062743984 0.012818647 -0.042050432
00000000: a960 4ebd 783b fc3d 632f a83d 6823 bd3e
00000010: 8759 dfbc 6862 1d3e 323e 9e3d a898 75be
00000020: 74e2 4a3e d13b 1c3e adb7 603d 435d abbd
00000030: d3a8 e03e d5c3 c83c ab8e e9bd 065b 03be
00000040: b34b 443e 557e 09be 4601 37bd d0d1 c03e
00000050: 1c3d 04be c381 3f3e ff71 833d f0c6 24be
00000060: 5f8a 7cbd e62c 7c3a ce78 913e 7d40 35be
00000070: 0244 98be c270 72be 0b15 79be b57d 92bd
00000080: 6260 40be c058 31bd 3faf 5abd a772 81bd
00000090: f73a 1bbe 021e a23e 4cd8 0f3d e68f 843c
000000a0: 980b 32be 948e ccbc 94a9 41be abb1 14be
000000b0: e4e0 93bd 2f04 003f 8dfd 2abe c81b c5bd
000000c0: 1673 42be dfc8 243e d4a2 26bd 0f16 19be
000000d0: 5fac f1bc 5198 413b 55d1 b33e 1833 3dbd
000000e0: ab8f 3abc fc77 05be 7725 033e 4f9c b73d
000000f0: 518a 1a3d 7899 cd3b 4d05 523c 133d 2cbd

conv2.weight f4 [16, 64, 3, 3]
0.012556608 -0.0040556546 -0.0062035425 -0.035230864 -0.0147916 -0.07133142 -0.075858526 -0.0402415
-0.014008097 0.08336715 0.046045475 0.008878745 0.05541609 0.0041566943 -0.0100866575 0.035336036
0.025906602 0.023214085 -0.03118926 0.0065720486 -0.0002667455 0.016836435 0.0005341901 0.06449099
0.023955472 0.032417525 0.022058146 0.1493182 0.14439058 0.10832881 0.14012189 0.1368019
0.08253455 0.12998423 0.09021881 0.11907491 -0.005842181 -0.021192394 -0.04117855 -0.033954717
-0.009252805 0.00015920712 -0.0108239325 0.004893117 0.037511073 0.08013187 0.037888955 0.053277086
0.07854984 0.013418229 0.026625331 0.0811278 0.034511846 0.07029829 0.0141848875 -0.079359144
-0.07143857 0.00744482 -0.04166254 -0.049524143 -0.030644601 -0.03201757 0.004895558 -0.026321018
-0.040228732 -0.041731205 -0.016086875 -0.057093747 -0.040121313 -0.06524833 0.0052195764 0.007075385
0.0380408 0.047180295 0.06795663 0.035444852 0.061286304 0.006193498 0.042953502 0.03617481
0.023643639 0.003352669 -0.015592215 0.03535048 0.029700814 0.0008961269 0.008900426 0.024567777
0.05080526 0.08445431 -0.003915894 0.020000983 -0.016442062 0.02458868 -0.054251093 -0.054871466
0.00027765267 0.007871543 0.026682954 -0.022151582 -0.064529486 -0.030652959 -0.026106153 0.009688829
-0.026510226 -0.04636003 0.027707793 -0.03874704 0.15355717 0.15857312 0.17266518 0.13739413
0.20892464 0.21534005 0.14239967 0.1952641 0.21878508 -0.10199704 -0.12107655 -0.053347066
-0.14776516 -0.1420665 -0.08499868 -0.08710621 -0.09722619 -0.061260857 -0.0018169691 0.035971202
0.026451327 -0.018546848 0.03574446 -0.015965607 -0.014156472 0.009093382 -0.014281129 0.004743918
0.02627391 0.009762251 0.0041467724 0.0034010184 0.00503232 0.007637946 -0.016950304 -0.017183043
0.077424616 0.09640724 0.047411956 0.054587256 0.10362199 0.08689032 0.07255865 0.10794867
0.09860191 0.009045839 -0.09820734 -0.093651004 -0.082682475 -0.04957793 -0.03072538 -0.033739194
-0.030164136 -0.03034794 0.038835794 0.0384092 -0.02810467 -0.016905967 0.034076568 -0.0036476508
-0.0372264 -0.031516332 -0.019374244 0.17389227 0.13108155 0.18230511 0.11990629 0.13091384
0.145925 0.15097943 0.13642956 0.1707528 -0.0044463333 -0.005459064 -0.0126674315 0.006873742
-0.035997957 0.02243571 0.021745766 -0.02710332 -0.009684869 0.045231182 0.008987799 0.031722624
0.039283838 -0.010678207 -0.0097161075 0.002917763 0.036983304 0.06535729 -0.0013195884 -0.052590877
-0.00014019401 -0.09107532 -0.051939912 -0.05135232 -0.015925301 -0.0033459882 -0.0613129 0.012596279
-0.032607734 -0.022410503 0.007185097 -0.010977298 0.012428224 -0.021114483 -0.019220611 0.0055131814
-0.020056857 0.0033454355 0.008843462 -0.035747133 -0.07036997 -0.030371236 -0.005185788 -0.010684989
0.002365454 -0.055255026 -0.07791552 -0.0150184585 -0.05047708 -0.017586932 -0.058307156 -0.04649971
-0.028555235 0.0060853595 0.02769123 -0.0044579427 0.018425228 0.038739853 0.024623817 0.04313776
0.06203939 0.03222094 0.044251725 -0.036751162 -0.001226617 0.025967792 0.029825127 0.034077156
-0.030602843 0.029277248 -0.04168942 -0.02241476 -0.0280903 -0.016310463 -0.0028990877 -0.044027455
00000000: 3bba 4d3c 4ce5 84bb 1647 cbbb 3d4e 10bd
00000010: 7858 72bc 3516 92bd b75b 9bbd 45d4 24bd
00000020: 3882 65bc 65bc aa3d 2e9a 3c3d 2878 113c
00000030: fbfb 623d e134 883b 8242 25bc 85bc 103d
00000040: 153a d43c 772b be3c 9e80 ffbc 575a d73b
00000050: fad9 8bb9 90ec 893c e408 0c3a da13 843d
00000060: 443e c43c 3dc8 043d 49b3 b43c dfe6 183e
00000070: 20db 133e 7fdb dd3d 1d7c 0f3e cc15 0c3e
00000080: e007 a93d 961a 053e a4c4 b83d 8cdd f33d
00000090: c46f bfbb ac9b adbc d7aa 28bd 1a14 0bbd
000000a0: 1499 17bc d6f0 2639 dd56 31bc 7156 a03b
000000b0: 36a5 193d 2e1c a43d 7331 1b3d 1339 5a3d
000000c0: bdde a03d 22d8 5b3c 5e1d da3c 5526 a63d
000000d0: 4b5c 0d3d 8df8 8f3d bb67 683c 0c87 a2bd
000000e0: 634e 92bd adf3 f33b 57a6 2abd d4d9 4abd
000000f0: 630a fbbc db24 03bd eb6a a03b 2d9f d7bc
00000100: e2c6 24bd 57ee 2abd 9fc8 83bc 22db 69bd
00000110: 3f56 24bd eba0 85bd fb08 ab3b a2d8 e73b
00000120: abd0 1b3d 2040 413d d82c 8b3d 9f2e 113d
00000130: 5907 7b3d d4f2 ca3b 03f0 2f3d 0a2c 143d
00000140: 4eb0 c13c 74b8 5b3b 7d76 7fbc aacb 103d
00000150: 1f4f f33c 0fea 6a3a 18d3 113c 5d42 c93c
00000160: 2d19 503d 62f6 ac3d e650 80bb 1ad9 a33c
00000170: 81b1 86bc 336e c93c 6536 5ebd e7c0 60bd
00000180: e991 9139 a5f7 003c 3696 da3c 3c77 b5bc
00000190: 0928 84bd ea1b fbbc 92dc d5bc e5bd 1e3c
000001a0: f92b d9bc 04e4 3dbd 74fb e23c 37b5 1ebd
000001b0: 173e 1d3e fe60 223e 24cf 303e 0cb1 0c3e
000001c0: 57f0 553e 1a82 5c3e 38d1 113e 50f3 473e
000001d0: 3209 603e d3e3 d0bd fbf6 f7bd 7482 5abd
000001e0: c04f 17be e179 11be ca13 aebd be64 b2bd
000001f0: 861e c7bd aaec 7abd 5e27 eeba 8a56 133d
00000200: 74b0 d83c 8fef 97bc c868 123d 4eca 82bc
00000210: 8cf0 67bc 69fc 143c 66fb 69bc de72 9b3b
00000220: 623c d73c d9f1 1f3c a6e1 873b 9fe3 5e3b
00000230: 29e6 a43b bc47 fa3b 5ddb 8abc 74c3 8cbc
00000240: cc90 9e3d 2971 c53d 0a33 423d e396 5f3d
00000250: c437 d43d 8df3 b13d a199 943d 3114 dd3d
00000260: ccef c93d 0035 143c ee20 c9bd 19cc bfbd
00000270: 6e55 a9bd 3a12 4bbd cbb3 fbbc 1c32 0abd
00000280: c71a f7bc 3e9c f8bc 4812 1f3d f752 1d3d
00000290: c43b e6bc 627e 8abc df93 0b3d 6d0d 6fbb
000002a0: b67a 18bd 4517 01bd bcb6 9ebc d110 323e
000002b0: 3e3a 063e 31ae 3a3e 6e91 f53d 470e 063e
000002c0: 5d6d 153e 5a9a 1a3e 31b4 0b3e d2d9 2e3e
000002d0: 8cb2 91bb f3e1 b2bb 0f8b 4fbc 213d e13b
000002e0: 9872 13bd 18cb b73c 2d24 b23c c807 debc
000002f0: 49ad 1ebc 5544 393d 9041 133c 95ef 013d
00000300: 17e8 203d a5f3 2ebc 4f30 1fbc f137 3f3b
00000310: ce7b 173d 0bda 853d 0af6 acba 8869 57bd
00000320: 0b01 13b9 b385 babd f2be 54bd cf56 52bd
00000330: c775 82bc 5e48 5bbb 3c23 7bbd a060 4e3c
00000340: b08f 05bd 3b96 b7bc f670 eb3b 20da 33bc
00000350: c09f 4b3c 48f8 acbc 8b74 9dbc eba7 b43b
00000360: 474e a4bc 183f 5b3b 2be4 103c 966b 12bd
00000370: 211e 90bd 19cd f8bc 8bed a9bb 1810 2fbc
00000380: bc05 1b3b 1853 62bd 2c92 9fbd fb0f 76bc
00000390: 0ec1 4ebd 7812 90bc 7cd3 6ebd 7b76 3ebd
000003a0: abec e9bc b267 c73b b8d8 e23c ef13 92bb
000003b0: 81f0 963c aead 1e3d e3b7 c93c 38b1 303d
000003c0: 041d 7e3d 1bfa 033d 4c41 353d 6388 16bd
000003d0: 70c6 a0ba 68ba d43c d353 f43c 7d94 0b3d
000003e0: d0b2 fabc d7d6 ef3c 86c2 2abd 299f b7bc
000003f0: a11d e6bc 859d 85bc 9ffe 3dbb 2256 34bd

conv2.bias f4 [16]
0.21520823 -0.034142133 -0.0023817113 -0.052891795 -0.22561216 -0.03909202 0.06284176 -0.041328236
-0.10364859 -0.03522867 -0.07125554 -0.20467214 -0.03342832 -0.006296969 -0.006282204 -0.016980642
00000000: 8c5f 5c3e 9fd8 0bbd 7c16 1cbb 11a5 58bd
00000010: e006 67be f41e 20bd 2eb3 803d cc47 29bd
00000020: b645 d4bd f04b 10bd 6dee 91bd 9395 51be
00000030: 22ec 08bd ce56 cebb f2da cdbb fd1a 8bbc

fc.weight f4 [10, 256]
-0.099366486 0.034956623 0.12709025 -0.13745461 -0.10213841 0.3445326 0.25250363 -0.15874818
-0.027571455 0.2570753 0.30525112 -0.07494421 -0.20864454 0.066756636 0.03768124 -0.08769576
0.044548694 0.0068085827 0.005493714 0.07678448 0.02403672 -0.0022871266 0.012746346 -0.021524781
0.143759 0.020613376 0.005756496 0.03155264 0.022968378 -0.0054321904 -0.061474822 -0.008484708
0.01595139 -0.08625509 0.06400495 -0.021710867 0.07008234 0.00794571 0.07120042 -0.005356444
0.057264313 0.09969206 0.045603912 0.035421144 -0.0065005356 0.021179646 0.0155442925 0.038088948
-0.017552836 -0.07390526 -0.032439306 -0.013187607 0.070573926 -0.3721148 -0.16834849 0.055347387
0.038791608 -0.21423227 -0.16569398 -0.06845989 0.09668588 -0.007829293 -0.050410416 -0.021082092
0.15058848 0.052524265 0.013365014 0.08295238 0.05841479 0.0058843107 -0.24652578 0.07936162
0.18761691 0.066042244 -0.063526355 0.09482434 0.21086074 0.08154 0.105375774 0.07714079
0.14361265 0.0968879 -0.11577141 0.036014084 0.05417225 -0.17895691 -0.13022918 0.19513248
0.10888894 -0.011059304 -0.13207166 0.121148214 0.10239011 -0.018405527 0.13666241 0.13097739
-0.048976626 -0.047790766 -0.06588828 -0.0062099495 0.03011955 0.051414333 0.0046294522 -0.03991255
-0.011838588 0.022940129 0.016132366 -0.031167483 0.029776517 0.018827824 0.06237015 -0.008064864
-0.062201295 -0.058108028 0.055118762 0.008786093 0.02171714 0.015071698 0.008739797 -0.022740763
-0.006558067 0.010517141 -0.005746721 0.0040879454 0.016008042 0.0619325 0.010648696 0.036681842
0.074312165 -0.1258193 0.0034997908 0.14035362 -0.028676277 -0.17078547 -0.14490046 0.051950544
0.017451698 -0.06697973 -0.031435743 0.08856314 0.032044888 0.1131863 -0.01799487 0.04793398
0.09231526 0.046999834 -0.030737901 -0.027582772 -0.016831802 0.00061883207 -0.1117812 0.037253276
0.08981956 0.16278309 0.08134057 0.040221833 0.027631182 0.13920577 -0.04655696 0.009552012
0.23430434 -0.11056103 0.04165699 0.28839263 -0.017455848 -0.27987352 -0.30487347 0.120444134
-0.045997243 -0.110953405 -0.06756432 0.16718137 -0.06545644 0.0720338 -0.013353617 0.033565458
0.098018624 -0.05525341 -0.057178535 0.11372344 0.0361813 -0.2614397 -0.11935354 0.12889974
0.010240217 -0.054771967 -0.064486526 0.025213134 -0.022097101 0.15963817 0.0859248 0.017711885
0.039315227 -0.019264558 0.051082876 -0.054865696 -0.009820379 -0.04269595 -0.005569083 0.030983135
-0.01705103 -0.018975943 -0.055950694 -0.038017314 -0.041305013 -0.038358204 -0.034774445 0.034338504
0.0076233237 -0.04918616 0.038360845 -0.013231441 0.05128978 -0.039687116 0.058463037 -0.023309378
-0.035282608 0.03332929 -0.05514685 0.026265383 -0.03941838 -0.059135374 0.025979085 0.016544232
0.010087215 0.032432836 0.01352892 -0.0057030795 -0.04161152 -0.0077840067 -0.023036493 -0.05477092
0.044539567 0.015189787 0.05588781 0.03801309 0.03878972 0.035588898 -0.05083534 -0.036067024
0.029537242 0.060301717 -0.049646284 -0.015006372 -0.028775854 -0.014337085 0.038714726 0.02437093
0.033561774 -0.023415023 -0.051233727 -0.027393647 -0.006771415 0.013010446 -0.031495918 0.007776382
00000000: a880 cbbd ad2e 0f3d f223 023e e7c0 0cbe
00000010: f12d d1bd 9466 b03e 2848 813e e28e 22be
00000020: 88dd e1bc 609f 833e e049 9c3e 5a7c 99bd
00000030: eaa6 55be b4b7 883d a557 1a3d d699 b3bd
00000040: b178 363d 881a df3b 9d04 b43b 2e41 9d3d
00000050: a8e8 c43c 9ee3 15bb 0dd6 503c bd54 b0bc
00000060: 8f35 133e 62dd a83c fda0 bc3b 573d 013d
00000070: 2e28 bc3c 8400 b2bb 06cd 7bbd 7203 0bbc
00000080: 7dac 823c 82a6 b0bd 0715 833d fdda b1bc
00000090: 5487 8f3d b92e 023c 87d1 913d 1c85 afbb
000000a0: fc8d 6a3d 5a2b cc3d 2bcb 3a3d c315 113d
000000b0: 7202 d5bb f080 ad3c 7dad 7e3c 2803 1c3d
000000c0: f7ca 8fbc a45b 97bd 14df 04bd d510 58bc
000000d0: 1089 903d d585 bebe 8c63 2cbe f1b3 623d
000000e0: f3e3 1e3d b45f 5bbe afab 29be b334 8cbd
000000f0: 3f03 c63d 6f46 00bc 277b 4ebd 5ab4 acbc
00000100: de33 1a3e af23 573d eff8 5a3c f0e2 a93d
00000110: 5944 6f3d 2dd1 c03b 4171 7cbe 5888 a23d
00000120: a61e 403e 2841 873d 1b1a 82bd 4333 c23d
00000130: e1eb 573e 72fe a63d 41cf d73d fefb 9d3d
00000140: 320f 133e 2a6d c63d 9019 edbd 8183 133d
00000150: b9e3 5d3d 7b40 37be cc5a 05be cfd0 473e
00000160: 2a01 df3d 1532 35bc cb3d 07be 8e1c f83d
00000170: e8b1 d13d 30c7 96bc 3bf1 0b3e f01e 063e
00000180: b79b 48bd 40c0 43bd 6ff0 86bd d57c cbbb
00000190: 46bd f63c d697 523d a9b2 973b 587b 23bd
000001a0: a3f6 41bc f0ec bb3c 0628 843c f352 ffbc
000001b0: e2ed f33c cf3c 9a3c d877 7f3d 7e22 04bc
000001c0: c9c6 7ebd af02 6ebd 36c4 613d 8cf3 0f3c
000001d0: 25e8 b13c 49ef 763c 5e31 0f3c d64a babc
000001e0: 0ee5 d6bb 1650 2c3c fd4e bcbb 2cf4 853b
000001f0: 4c23 833c efac 7d3d de77 2e3c b33f 163d
00000200: fa30 983d c6d6 00be bf5c 653b dcb8 0f3e
00000210: 83ea eabc 63e2 2ebe c960 14be 18ca 543d
00000220: ddf6 8e3c ab2c 89bd c4c2 00bd 9760 b53d
00000230: 8041 033d 38ce e73d fa69 93bc 6c56 443d
00000240: c80f bd3d e682 403d 0dce fbbc 44f5 e1bc
00000250: d9e2 89bc 1e39 223a 8bed e4bd e496 183d
00000260: 51f3 b73d 9cb0 263e e295 a63d a6bf 243d
00000270: ca5a e23c f58b 0e3e 83b2 3ebd 0b80 1c3c
00000280: 7aed 6f3e d26d e2bd 85a0 2a3d 33a8 933e
00000290: 91ff 8ebc 954b 8fbe 6018 9cbe 6aab f63d
000002a0: 9b67 3cbd 8a3b e3bd 2a5f 8abd 9831 2b3e
000002b0: 070e 86bd 7586 933d 21c9 5abc ef7b 093d
000002c0: fdbd c83d 6651 62bd 0a34 6abd d6e7 e83d
000002d0: d832 143d 6ddb 85be a16f f4bd 4bfe 033e
000002e0: 95c6 273c 9258 60bd 8311 84bd c68b ce3c
000002f0: fb04 b5bc 3078 233e 57f9 af3d 8418 913c
00000300: 0109 213d b5d0 9dbc 473c 513d daba 60bd
00000310: a8e5 20bc f3e1 2ebd db7c b6bb 58d0 fd3c
00000320: 9aae 8bbc 7073 9bbc 8e2c 65bd 0bb8 1bbd
00000330: 722f 29bd 7e1d 1dbd a66f 0ebd 88a6 0c3d
00000340: 13cd f93b 6d77 49bd 4320 1d3d b0c8 58bc
00000350: 3b15 523d f58e 22bd f076 6f3d 4ff3 bebc
00000360: 7f84 10bd 4b84 083d aae1 61bd 802a d73c
00000370: 2b75 21bd ef37 72bd 17d2 d43c c587 873c
00000380: d944 253c 4bd8 043d 67a8 5d3c e6e0 babb
00000390: d770 2abd fb10 ffbb 07b7 bcbc 7957 60bd
000003a0: 1f6f 363d 96de 783c 9eea 643d 9db3 1b3d
000003b0: f8e1 1e3d aac5 113d b838 50bd 04bb 13bd
000003c0: 16f8 f13c effe 763d e759 4bbd 49dd 75bc
000003d0: 57bb ebbc 18e6 6abc 5593 1e3d 8ba5 c73c
000003e0: 1278 093d ddd0 bfbc 75da 51bd a468 e0bc
000003f0: bfe2 ddbb c429 553c dd01 01bd 05d1 fe3b

fc.bias f4 [10]
-0.30853644 0.19073045 -0.055378873 0.1267242 0.20774306 -0.08325122 -0.13588428 0.015051503
0.09107241 -0.06855477
00000000: 7df8 9dbe d84e 433e f5d4 62bd fdc3 013e
00000010: 99ba 543e 9e7f aabd 4025 0bbe 949a 763c
00000020: 2c84 ba3d 7166 8cbd
